Neural Network Tools for STM32AI v1.6.0 (STM.ai v7.1.0-RC3)
Created date          : 2022-02-19 19:09:29
Parameters            : generate --name yoloface -m F:/Git_repository/others_project/yoloface-50k/tflite/yoloface_int8.tflite --type tflite --compression 1 --verbosity 1 --workspace C:\Users\NH55\AppData\Local\Temp\mxAI_workspace203722631889004075748425735586718 --output C:\Users\NH55\.stm32cubemx\yoloface_output

Exec/report summary (generate)
------------------------------------------------------------------------------------------------------------------------
model file            : F:\Git_repository\others_project\yoloface-50k\tflite\yoloface_int8.tflite
type                  : tflite
c_name                : yoloface
compression           : None
workspace dir         : C:\Users\NH55\AppData\Local\Temp\mxAI_workspace203722631889004075748425735586718
output dir            : C:\Users\NH55\.stm32cubemx\yoloface_output
model_name            : yoloface_int8
model_hash            : 6e73621b74e22de6d49ea182d7122906
input 1/1             : 'Input_int8'
                        9409 items, 9.19 KiB, ai_i8, scale=0.00392157, zero_point=-128, (1,56,56,3), domain:user/
output 1/1            : 'conv2d_53'
                        882 items, 882 B, ai_i8, scale=0.14218327, zero_point=-15, (1,7,7,18), domain:user/
params #              : 9,670 items (11.04 KiB)
macc                  : 1,344,320
weights (ro)          : 11,304 B (11.04 KiB) / +2(+0.0%) vs original model (1 segment)
activations (rw)      : 30,736 B (30.02 KiB) (1 segment)
ram (total)           : 41,027 B (40.07 KiB) = 30,736 + 9,409 + 882

Model name - yoloface_int8 ['Input_int8'] ['conv2d_53']
---------------------------------------------------------------------------------------------------------------------------------------------------
id   layer (type)                 oshape         param/size    macc      connected to    |   c_size      c_macc             c_type                
---------------------------------------------------------------------------------------------------------------------------------------------------
0    Input_int8 (Input)           (1,56,56,3)                                            |                                 
     pad_0 (Pad)                  (1,57,57,3)                            Input_int8      |                                 
---------------------------------------------------------------------------------------------------------------------------------------------------
1    conv2d_1 (Conv2D)            (1,28,28,8)    224/248       169,352   pad_0           |               +6,272(+3.7%)      conv2d(i)[0]          
---------------------------------------------------------------------------------------------------------------------------------------------------
2    nl_2 (Nonlinearity)          (1,28,28,8)                  6,272     conv2d_1        |               -6,272(-100.0%)   
---------------------------------------------------------------------------------------------------------------------------------------------------
3    conv2d_3 (Conv2D)            (1,28,28,8)    80/104        56,456    nl_2            |               +6,272(+11.1%)     conv2d(i)[1]          
---------------------------------------------------------------------------------------------------------------------------------------------------
4    nl_4 (Nonlinearity)          (1,28,28,8)                  6,272     conv2d_3        |               -6,272(-100.0%)   
---------------------------------------------------------------------------------------------------------------------------------------------------
5    conv2d_5 (Conv2D)            (1,28,28,4)    36/48         25,092    nl_4            |                                  conv2d(i)[2]          
---------------------------------------------------------------------------------------------------------------------------------------------------
6    conv2d_6 (Conv2D)            (1,28,28,18)   90/144        56,466    conv2d_5        |               +14,112(+25.0%)    conv2d(i)[3]          
---------------------------------------------------------------------------------------------------------------------------------------------------
7    nl_7 (Nonlinearity)          (1,28,28,18)                 14,112    conv2d_6        |               -14,112(-100.0%)  
---------------------------------------------------------------------------------------------------------------------------------------------------
8    pool_8 (Pool)                (1,14,14,18)                 225,792   nl_7            |                                  pool(i)[11]           
---------------------------------------------------------------------------------------------------------------------------------------------------
9    pad_9 (Pad)                  (1,29,29,18)                           nl_7            |                                 
---------------------------------------------------------------------------------------------------------------------------------------------------
10   conv2d_10 (Conv2D)           (1,14,14,18)   180/234       31,770    pad_9           |   +2(+0.9%)   +3,528(+11.1%)     conv2d(i)[4]          
---------------------------------------------------------------------------------------------------------------------------------------------------
11   nl_11 (Nonlinearity)         (1,14,14,18)                 3,528     conv2d_10       |               -3,528(-100.0%)   
---------------------------------------------------------------------------------------------------------------------------------------------------
12   conv2d_12 (Conv2D)           (1,14,14,6)    114/132       21,174    nl_11           |                                  conv2d(i)[5]          
---------------------------------------------------------------------------------------------------------------------------------------------------
13   conv2d_13 (Conv2D)           (1,14,14,36)   252/360       42,372    conv2d_12       |               +7,056(+16.7%)     conv2d(i)[6]          
---------------------------------------------------------------------------------------------------------------------------------------------------
14   nl_14 (Nonlinearity)         (1,14,14,36)                 7,056     conv2d_13       |               -7,056(-100.0%)   
---------------------------------------------------------------------------------------------------------------------------------------------------
15   conv2d_15 (Conv2D)           (1,14,14,36)   360/468       63,540    nl_14           |               +7,056(+11.1%)     conv2d(i)[7]          
---------------------------------------------------------------------------------------------------------------------------------------------------
16   nl_16 (Nonlinearity)         (1,14,14,36)                 7,056     conv2d_15       |               -7,056(-100.0%)   
---------------------------------------------------------------------------------------------------------------------------------------------------
17   conv2d_17 (Conv2D)           (1,14,14,6)    222/240       42,342    nl_16           |                                  conv2d(i)[8]          
---------------------------------------------------------------------------------------------------------------------------------------------------
18   eltwise_18 (Eltwise)         (1,14,14,6)                  1,176     conv2d_12       |                                  eltwise_integer(i)[9] 
                                                                         conv2d_17       |  
---------------------------------------------------------------------------------------------------------------------------------------------------
19   conv2d_19 (Conv2D)           (1,14,14,18)   126/180       21,186    eltwise_18      |               +3,528(+16.7%)     conv2d(i)[10]         
---------------------------------------------------------------------------------------------------------------------------------------------------
20   nl_20 (Nonlinearity)         (1,14,14,18)                 3,528     conv2d_19       |               -3,528(-100.0%)   
---------------------------------------------------------------------------------------------------------------------------------------------------
21   conversion_21 (Conversion)   (1,14,14,18)                 7,056     pool_8          |               -7,056(-100.0%)   
---------------------------------------------------------------------------------------------------------------------------------------------------
22   concat_22 (Concat)           (1,14,14,36)                           conversion_21   |                                  concat(i)[12]         
                                                                         nl_20           |  
---------------------------------------------------------------------------------------------------------------------------------------------------
23   conv2d_23 (Conv2D)           (1,14,14,24)   888/960       169,368   concat_22       |               +4,704(+2.8%)      conv2d(i)[13]         
---------------------------------------------------------------------------------------------------------------------------------------------------
24   nl_24 (Nonlinearity)         (1,14,14,24)                 4,704     conv2d_23       |               -4,704(-100.0%)   
---------------------------------------------------------------------------------------------------------------------------------------------------
25   pool_25 (Pool)               (1,7,7,24)                   18,816    nl_24           |                                  pool(i)[25]           
---------------------------------------------------------------------------------------------------------------------------------------------------
26   pad_26 (Pad)                 (1,15,15,24)                           nl_24           |                                 
---------------------------------------------------------------------------------------------------------------------------------------------------
27   conv2d_27 (Conv2D)           (1,7,7,24)     240/312       10,608    pad_26          |               +1,176(+11.1%)     conv2d(i)[14]         
---------------------------------------------------------------------------------------------------------------------------------------------------
28   nl_28 (Nonlinearity)         (1,7,7,24)                   1,176     conv2d_27       |               -1,176(-100.0%)   
---------------------------------------------------------------------------------------------------------------------------------------------------
29   conv2d_29 (Conv2D)           (1,7,7,8)      200/224       9,416     nl_28           |                                  conv2d(i)[15]         
---------------------------------------------------------------------------------------------------------------------------------------------------
30   conv2d_30 (Conv2D)           (1,7,7,40)     360/480       15,720    conv2d_29       |               +1,960(+12.5%)     conv2d(i)[16]         
---------------------------------------------------------------------------------------------------------------------------------------------------
31   nl_31 (Nonlinearity)         (1,7,7,40)                   1,960     conv2d_30       |               -1,960(-100.0%)   
---------------------------------------------------------------------------------------------------------------------------------------------------
32   conv2d_32 (Conv2D)           (1,7,7,40)     400/520       17,680    nl_31           |               +1,960(+11.1%)     conv2d(i)[17]         
---------------------------------------------------------------------------------------------------------------------------------------------------
33   nl_33 (Nonlinearity)         (1,7,7,40)                   1,960     conv2d_32       |               -1,960(-100.0%)   
---------------------------------------------------------------------------------------------------------------------------------------------------
34   conv2d_34 (Conv2D)           (1,7,7,8)      328/352       15,688    nl_33           |                                  conv2d(i)[18]         
---------------------------------------------------------------------------------------------------------------------------------------------------
35   eltwise_35 (Eltwise)         (1,7,7,8)                    392       conv2d_29       |                                  eltwise_integer(i)[19]
                                                                         conv2d_34       |  
---------------------------------------------------------------------------------------------------------------------------------------------------
36   conv2d_36 (Conv2D)           (1,7,7,40)     360/480       15,720    eltwise_35      |               +1,960(+12.5%)     conv2d(i)[20]         
---------------------------------------------------------------------------------------------------------------------------------------------------
37   nl_37 (Nonlinearity)         (1,7,7,40)                   1,960     conv2d_36       |               -1,960(-100.0%)   
---------------------------------------------------------------------------------------------------------------------------------------------------
38   conv2d_38 (Conv2D)           (1,7,7,40)     400/520       17,680    nl_37           |               +1,960(+11.1%)     conv2d(i)[21]         
---------------------------------------------------------------------------------------------------------------------------------------------------
39   nl_39 (Nonlinearity)         (1,7,7,40)                   1,960     conv2d_38       |               -1,960(-100.0%)   
---------------------------------------------------------------------------------------------------------------------------------------------------
40   conv2d_40 (Conv2D)           (1,7,7,8)      328/352       15,688    nl_39           |                                  conv2d(i)[22]         
---------------------------------------------------------------------------------------------------------------------------------------------------
41   eltwise_41 (Eltwise)         (1,7,7,8)                    392       eltwise_35      |                                  eltwise_integer(i)[23]
                                                                         conv2d_40       |  
---------------------------------------------------------------------------------------------------------------------------------------------------
42   conv2d_42 (Conv2D)           (1,7,7,24)     216/288       9,432     eltwise_41      |               +1,176(+12.5%)     conv2d(i)[24]         
---------------------------------------------------------------------------------------------------------------------------------------------------
43   nl_43 (Nonlinearity)         (1,7,7,24)                   1,176     conv2d_42       |               -1,176(-100.0%)   
---------------------------------------------------------------------------------------------------------------------------------------------------
44   conversion_44 (Conversion)   (1,7,7,24)                   2,352     nl_43           |               -2,352(-100.0%)   
---------------------------------------------------------------------------------------------------------------------------------------------------
45   conversion_45 (Conversion)   (1,7,7,24)                   2,352     pool_25         |               -2,352(-100.0%)   
---------------------------------------------------------------------------------------------------------------------------------------------------
46   concat_46 (Concat)           (1,7,7,48)                             conversion_45   |                                  concat(i)[26]         
                                                                         conversion_44   |  
---------------------------------------------------------------------------------------------------------------------------------------------------
47   conv2d_47 (Conv2D)           (1,7,7,40)     1,960/2,080   94,120    concat_46       |               +1,960(+2.1%)      conv2d(i)[27]         
---------------------------------------------------------------------------------------------------------------------------------------------------
48   nl_48 (Nonlinearity)         (1,7,7,40)                   1,960     conv2d_47       |               -1,960(-100.0%)   
---------------------------------------------------------------------------------------------------------------------------------------------------
49   conv2d_49 (Conv2D)           (1,7,7,40)     400/520       17,680    nl_48           |               +1,960(+11.1%)     conv2d(i)[28]         
---------------------------------------------------------------------------------------------------------------------------------------------------
50   nl_50 (Nonlinearity)         (1,7,7,40)                   1,960     conv2d_49       |               -1,960(-100.0%)   
---------------------------------------------------------------------------------------------------------------------------------------------------
51   conv2d_51 (Conv2D)           (1,7,7,32)     1,312/1,408   62,752    nl_50           |               +1,568(+2.5%)      conv2d(i)[29]         
---------------------------------------------------------------------------------------------------------------------------------------------------
52   nl_52 (Nonlinearity)         (1,7,7,32)                   1,568     conv2d_51       |               -1,568(-100.0%)   
---------------------------------------------------------------------------------------------------------------------------------------------------
53   conv2d_53 (Conv2D)           (1,7,7,18)     594/648       28,242    nl_52           |                                  conv2d(i)/o[30]       
---------------------------------------------------------------------------------------------------------------------------------------------------
model/c-model: macc=1,356,080/1,344,320 -11,760(-0.9%) weights=11,302/11,304 +2(+0.0%) activations=--/30,736 io=--/10,291



Generated C-graph summary
------------------------------------------------------------------------------------------------------------------------
model name            : yoloface_int8
c-name                : yoloface
c-node #              : 31
c-array #             : 121
activations size      : 30736 (1 segments)
weights size          : 11304 (1 segments)
macc                  : 1344320
inputs                : ['Input_int8_output']
outputs               : ['conv2d_53_output']

C-Arrays (121)
--------------------------------------------------------------------------------------------------------------------
c_id   name (*_array)       item/size     domain/mem-pool           c-type          fmt                     comment
--------------------------------------------------------------------------------------------------------------------
0      Input_int8_output    9409/9409     user/                     int8_t          int8/sa                 /input 
1      conv2d_1_output      6272/6272     activations/**default**   int8_t          int8/sa                        
2      conv2d_3_output      6272/6272     activations/**default**   int8_t          int8/sa                        
3      conv2d_5_output      3136/3136     activations/**default**   int8_t          int8/sa                        
4      conv2d_6_output      14112/14112   activations/**default**   int8_t          int8/sa                        
5      conv2d_10_output     3528/3528     activations/**default**   int8_t          int8/sa                        
6      conv2d_12_output     1176/1176     activations/**default**   int8_t          int8/sa                        
7      conv2d_13_output     7056/7056     activations/**default**   int8_t          int8/sa                        
8      conv2d_15_output     7056/7056     activations/**default**   int8_t          int8/sa                        
9      conv2d_17_output     1176/1176     activations/**default**   int8_t          int8/sa                        
10     eltwise_18_output    1176/1176     activations/**default**   int8_t          int8/sa                        
11     conv2d_19_output     3528/3528     activations/**default**   int8_t          int8/sa                        
12     pool_8_output        3528/3528     activations/**default**   int8_t          int8/sa                        
13     concat_22_output     7056/7056     activations/**default**   int8_t          int8/sa                        
14     conv2d_23_output     4704/4704     activations/**default**   int8_t          int8/sa                        
15     conv2d_27_output     1176/1176     activations/**default**   int8_t          int8/sa                        
16     conv2d_29_output     392/392       activations/**default**   int8_t          int8/sa                        
17     conv2d_30_output     1960/1960     activations/**default**   int8_t          int8/sa                        
18     conv2d_32_output     1960/1960     activations/**default**   int8_t          int8/sa                        
19     conv2d_34_output     392/392       activations/**default**   int8_t          int8/sa                        
20     eltwise_35_output    392/392       activations/**default**   int8_t          int8/sa                        
21     conv2d_36_output     1960/1960     activations/**default**   int8_t          int8/sa                        
22     conv2d_38_output     1960/1960     activations/**default**   int8_t          int8/sa                        
23     conv2d_40_output     392/392       activations/**default**   int8_t          int8/sa                        
24     eltwise_41_output    392/392       activations/**default**   int8_t          int8/sa                        
25     conv2d_42_output     1176/1176     activations/**default**   int8_t          int8/sa                        
26     pool_25_output       1176/1176     activations/**default**   int8_t          int8/sa                        
27     concat_46_output     2352/2352     activations/**default**   int8_t          int8/sa                        
28     conv2d_47_output     1960/1960     activations/**default**   int8_t          int8/sa                        
29     conv2d_49_output     1960/1960     activations/**default**   int8_t          int8/sa                        
30     conv2d_51_output     1568/1568     activations/**default**   int8_t          int8/sa                        
31     conv2d_53_output     882/882       user/                     int8_t          int8/sa                 /output
32     conv2d_1_weights     216/216       weights/                  const int8_t    int8/sa/channel (8)            
33     conv2d_1_bias        8/32          weights/                  const int32_t   int32/sa/channel (8)           
34     conv2d_3_weights     72/72         weights/                  const int8_t    int8/sa/channel (8)            
35     conv2d_3_bias        8/32          weights/                  const int32_t   int32/sa/channel (8)           
36     conv2d_5_weights     32/32         weights/                  const int8_t    int8/sa/channel (4)            
37     conv2d_5_bias        4/16          weights/                  const int32_t   int32/sa/channel (4)           
38     conv2d_6_weights     72/72         weights/                  const int8_t    int8/sa/channel (18)           
39     conv2d_6_bias        18/72         weights/                  const int32_t   int32/sa/channel (18)          
40     conv2d_10_weights    162/164       weights/                  const int8_t    int8/sa/channel (18)           
41     conv2d_10_bias       18/72         weights/                  const int32_t   int32/sa/channel (18)          
42     conv2d_12_weights    108/108       weights/                  const int8_t    int8/sa/channel (6)            
43     conv2d_12_bias       6/24          weights/                  const int32_t   int32/sa/channel (6)           
44     conv2d_13_weights    216/216       weights/                  const int8_t    int8/sa/channel (36)           
45     conv2d_13_bias       36/144        weights/                  const int32_t   int32/sa/channel (36)          
46     conv2d_15_weights    324/324       weights/                  const int8_t    int8/sa/channel (36)           
47     conv2d_15_bias       36/144        weights/                  const int32_t   int32/sa/channel (36)          
48     conv2d_17_weights    216/216       weights/                  const int8_t    int8/sa/channel (6)            
49     conv2d_17_bias       6/24          weights/                  const int32_t   int32/sa/channel (6)           
50     conv2d_19_weights    108/108       weights/                  const int8_t    int8/sa/channel (18)           
51     conv2d_19_bias       18/72         weights/                  const int32_t   int32/sa/channel (18)          
52     conv2d_23_weights    864/864       weights/                  const int8_t    int8/sa/channel (24)           
53     conv2d_23_bias       24/96         weights/                  const int32_t   int32/sa/channel (24)          
54     conv2d_27_weights    216/216       weights/                  const int8_t    int8/sa/channel (24)           
55     conv2d_27_bias       24/96         weights/                  const int32_t   int32/sa/channel (24)          
56     conv2d_29_weights    192/192       weights/                  const int8_t    int8/sa/channel (8)            
57     conv2d_29_bias       8/32          weights/                  const int32_t   int32/sa/channel (8)           
58     conv2d_30_weights    320/320       weights/                  const int8_t    int8/sa/channel (40)           
59     conv2d_30_bias       40/160        weights/                  const int32_t   int32/sa/channel (40)          
60     conv2d_32_weights    360/360       weights/                  const int8_t    int8/sa/channel (40)           
61     conv2d_32_bias       40/160        weights/                  const int32_t   int32/sa/channel (40)          
62     conv2d_34_weights    320/320       weights/                  const int8_t    int8/sa/channel (8)            
63     conv2d_34_bias       8/32          weights/                  const int32_t   int32/sa/channel (8)           
64     conv2d_36_weights    320/320       weights/                  const int8_t    int8/sa/channel (40)           
65     conv2d_36_bias       40/160        weights/                  const int32_t   int32/sa/channel (40)          
66     conv2d_38_weights    360/360       weights/                  const int8_t    int8/sa/channel (40)           
67     conv2d_38_bias       40/160        weights/                  const int32_t   int32/sa/channel (40)          
68     conv2d_40_weights    320/320       weights/                  const int8_t    int8/sa/channel (8)            
69     conv2d_40_bias       8/32          weights/                  const int32_t   int32/sa/channel (8)           
70     conv2d_42_weights    192/192       weights/                  const int8_t    int8/sa/channel (24)           
71     conv2d_42_bias       24/96         weights/                  const int32_t   int32/sa/channel (24)          
72     conv2d_47_weights    1920/1920     weights/                  const int8_t    int8/sa/channel (40)           
73     conv2d_47_bias       40/160        weights/                  const int32_t   int32/sa/channel (40)          
74     conv2d_49_weights    360/360       weights/                  const int8_t    int8/sa/channel (40)           
75     conv2d_49_bias       40/160        weights/                  const int32_t   int32/sa/channel (40)          
76     conv2d_51_weights    1280/1280     weights/                  const int8_t    int8/sa/channel (32)           
77     conv2d_51_bias       32/128        weights/                  const int32_t   int32/sa/channel (32)          
78     conv2d_53_weights    576/576       weights/                  const int8_t    int8/sa/channel (18)           
79     conv2d_53_bias       18/72         weights/                  const int32_t   int32/sa/channel (18)          
80     conv2d_1_scratch0    652/652       activations/**default**   int8_t          int/ss                         
81     conv2d_1_scratch1    6272/6272     activations/**default**   int8_t          int8/sa                        
82     conv2d_3_scratch0    297/297       activations/**default**   int8_t          int/ss                         
83     conv2d_3_scratch1    6272/6272     activations/**default**   int8_t          int8/sa                        
84     conv2d_5_scratch0    72/72         activations/**default**   int8_t          int/ss                         
85     conv2d_6_scratch0    196/196       activations/**default**   int8_t          int/ss                         
86     conv2d_6_scratch1    14112/14112   activations/**default**   int8_t          int8/sa                        
87     conv2d_10_scratch0   667/667       activations/**default**   int8_t          int/ss                         
88     conv2d_10_scratch1   3528/3528     activations/**default**   int8_t          int8/sa                        
89     conv2d_12_scratch0   132/132       activations/**default**   int8_t          int/ss                         
90     conv2d_13_scratch0   384/384       activations/**default**   int8_t          int/ss                         
91     conv2d_13_scratch1   7056/7056     activations/**default**   int8_t          int8/sa                        
92     conv2d_15_scratch0   1333/1333     activations/**default**   int8_t          int/ss                         
93     conv2d_15_scratch1   7056/7056     activations/**default**   int8_t          int8/sa                        
94     conv2d_17_scratch0   204/204       activations/**default**   int8_t          int/ss                         
95     conv2d_19_scratch0   204/204       activations/**default**   int8_t          int/ss                         
96     conv2d_19_scratch1   3528/3528     activations/**default**   int8_t          int8/sa                        
97     conv2d_23_scratch0   384/384       activations/**default**   int8_t          int/ss                         
98     conv2d_23_scratch1   4704/4704     activations/**default**   int8_t          int8/sa                        
99     conv2d_27_scratch0   889/889       activations/**default**   int8_t          int/ss                         
100    conv2d_27_scratch1   1176/1176     activations/**default**   int8_t          int8/sa                        
101    conv2d_29_scratch0   176/176       activations/**default**   int8_t          int/ss                         
102    conv2d_30_scratch0   432/432       activations/**default**   int8_t          int/ss                         
103    conv2d_30_scratch1   1960/1960     activations/**default**   int8_t          int8/sa                        
104    conv2d_32_scratch0   1481/1481     activations/**default**   int8_t          int/ss                         
105    conv2d_32_scratch1   1960/1960     activations/**default**   int8_t          int8/sa                        
106    conv2d_34_scratch0   240/240       activations/**default**   int8_t          int/ss                         
107    conv2d_36_scratch0   432/432       activations/**default**   int8_t          int/ss                         
108    conv2d_36_scratch1   1960/1960     activations/**default**   int8_t          int8/sa                        
109    conv2d_38_scratch0   1481/1481     activations/**default**   int8_t          int/ss                         
110    conv2d_38_scratch1   1960/1960     activations/**default**   int8_t          int8/sa                        
111    conv2d_40_scratch0   240/240       activations/**default**   int8_t          int/ss                         
112    conv2d_42_scratch0   272/272       activations/**default**   int8_t          int/ss                         
113    conv2d_42_scratch1   1176/1176     activations/**default**   int8_t          int8/sa                        
114    conv2d_47_scratch0   592/592       activations/**default**   int8_t          int/ss                         
115    conv2d_47_scratch1   1960/1960     activations/**default**   int8_t          int8/sa                        
116    conv2d_49_scratch0   1481/1481     activations/**default**   int8_t          int/ss                         
117    conv2d_49_scratch1   1960/1960     activations/**default**   int8_t          int8/sa                        
118    conv2d_51_scratch0   480/480       activations/**default**   int8_t          int/ss                         
119    conv2d_51_scratch1   1568/1568     activations/**default**   int8_t          int8/sa                        
120    conv2d_53_scratch0   308/308       activations/**default**   int8_t          int/ss                         
--------------------------------------------------------------------------------------------------------------------

C-Layers (31)
---------------------------------------------------------------------------------------------------------
c_id   name (*_layer)   id   layer_type        macc     rom    tensors                 shape (array id) 
---------------------------------------------------------------------------------------------------------
0      conv2d_1         2    conv2d            175624   248    I: Input_int8_output    (1,56,56,3) (0)  
                                                               S: conv2d_1_scratch0                     
                                                               S: conv2d_1_scratch1                     
                                                               W: conv2d_1_weights     (3,8,3,3) (32)   
                                                               W: conv2d_1_bias        (1,1,1,8) (33)   
                                                               O: conv2d_1_output      (1,28,28,8) (1)  
---------------------------------------------------------------------------------------------------------
1      conv2d_3         4    conv2d            62728    104    I: conv2d_1_output      (1,28,28,8) (1)  
                                                               S: conv2d_3_scratch0                     
                                                               S: conv2d_3_scratch1                     
                                                               W: conv2d_3_weights     (8,1,3,3) (34)   
                                                               W: conv2d_3_bias        (1,1,1,8) (35)   
                                                               O: conv2d_3_output      (1,28,28,8) (2)  
---------------------------------------------------------------------------------------------------------
2      conv2d_5         5    conv2d            25092    48     I: conv2d_3_output      (1,28,28,8) (2)  
                                                               S: conv2d_5_scratch0                     
                                                               W: conv2d_5_weights     (8,4,1,1) (36)   
                                                               W: conv2d_5_bias        (1,1,1,4) (37)   
                                                               O: conv2d_5_output      (1,28,28,4) (3)  
---------------------------------------------------------------------------------------------------------
3      conv2d_6         7    conv2d            70578    144    I: conv2d_5_output      (1,28,28,4) (3)  
                                                               S: conv2d_6_scratch0                     
                                                               S: conv2d_6_scratch1                     
                                                               W: conv2d_6_weights     (4,18,1,1) (38)  
                                                               W: conv2d_6_bias        (1,1,1,18) (39)  
                                                               O: conv2d_6_output      (1,28,28,18) (4) 
---------------------------------------------------------------------------------------------------------
4      conv2d_10        11   conv2d            35298    236    I: conv2d_6_output      (1,28,28,18) (4) 
                                                               S: conv2d_10_scratch0                    
                                                               S: conv2d_10_scratch1                    
                                                               W: conv2d_10_weights    (18,1,3,3) (40)  
                                                               W: conv2d_10_bias       (1,1,1,18) (41)  
                                                               O: conv2d_10_output     (1,14,14,18) (5) 
---------------------------------------------------------------------------------------------------------
5      conv2d_12        12   conv2d            21174    132    I: conv2d_10_output     (1,14,14,18) (5) 
                                                               S: conv2d_12_scratch0                    
                                                               W: conv2d_12_weights    (18,6,1,1) (42)  
                                                               W: conv2d_12_bias       (1,1,1,6) (43)   
                                                               O: conv2d_12_output     (1,14,14,6) (6)  
---------------------------------------------------------------------------------------------------------
6      conv2d_13        14   conv2d            49428    360    I: conv2d_12_output     (1,14,14,6) (6)  
                                                               S: conv2d_13_scratch0                    
                                                               S: conv2d_13_scratch1                    
                                                               W: conv2d_13_weights    (6,36,1,1) (44)  
                                                               W: conv2d_13_bias       (1,1,1,36) (45)  
                                                               O: conv2d_13_output     (1,14,14,36) (7) 
---------------------------------------------------------------------------------------------------------
7      conv2d_15        16   conv2d            70596    468    I: conv2d_13_output     (1,14,14,36) (7) 
                                                               S: conv2d_15_scratch0                    
                                                               S: conv2d_15_scratch1                    
                                                               W: conv2d_15_weights    (36,1,3,3) (46)  
                                                               W: conv2d_15_bias       (1,1,1,36) (47)  
                                                               O: conv2d_15_output     (1,14,14,36) (8) 
---------------------------------------------------------------------------------------------------------
8      conv2d_17        17   conv2d            42342    240    I: conv2d_15_output     (1,14,14,36) (8) 
                                                               S: conv2d_17_scratch0                    
                                                               W: conv2d_17_weights    (36,6,1,1) (48)  
                                                               W: conv2d_17_bias       (1,1,1,6) (49)   
                                                               O: conv2d_17_output     (1,14,14,6) (9)  
---------------------------------------------------------------------------------------------------------
9      eltwise_18       18   eltwise_integer   1176     0      I: conv2d_12_output     (1,14,14,6) (6)  
                                                               I: conv2d_17_output     (1,14,14,6) (9)  
                                                               O: eltwise_18_output    (1,14,14,6) (10) 
---------------------------------------------------------------------------------------------------------
10     conv2d_19        20   conv2d            24714    180    I: eltwise_18_output    (1,14,14,6) (10) 
                                                               S: conv2d_19_scratch0                    
                                                               S: conv2d_19_scratch1                    
                                                               W: conv2d_19_weights    (6,18,1,1) (50)  
                                                               W: conv2d_19_bias       (1,1,1,18) (51)  
                                                               O: conv2d_19_output     (1,14,14,18) (11)
---------------------------------------------------------------------------------------------------------
11     pool_8           8    pool              225792   0      I: conv2d_6_output      (1,28,28,18) (4) 
                                                               O: pool_8_output        (1,14,14,18) (12)
---------------------------------------------------------------------------------------------------------
12     concat_22        22   concat            0        0      I: pool_8_output        (1,14,14,18) (12)
                                                               I: conv2d_19_output     (1,14,14,18) (11)
                                                               O: concat_22_output     (1,14,14,36) (13)
---------------------------------------------------------------------------------------------------------
13     conv2d_23        24   conv2d            174072   960    I: concat_22_output     (1,14,14,36) (13)
                                                               S: conv2d_23_scratch0                    
                                                               S: conv2d_23_scratch1                    
                                                               W: conv2d_23_weights    (36,24,1,1) (52) 
                                                               W: conv2d_23_bias       (1,1,1,24) (53)  
                                                               O: conv2d_23_output     (1,14,14,24) (14)
---------------------------------------------------------------------------------------------------------
14     conv2d_27        28   conv2d            11784    312    I: conv2d_23_output     (1,14,14,24) (14)
                                                               S: conv2d_27_scratch0                    
                                                               S: conv2d_27_scratch1                    
                                                               W: conv2d_27_weights    (24,1,3,3) (54)  
                                                               W: conv2d_27_bias       (1,1,1,24) (55)  
                                                               O: conv2d_27_output     (1,7,7,24) (15)  
---------------------------------------------------------------------------------------------------------
15     conv2d_29        29   conv2d            9416     224    I: conv2d_27_output     (1,7,7,24) (15)  
                                                               S: conv2d_29_scratch0                    
                                                               W: conv2d_29_weights    (24,8,1,1) (56)  
                                                               W: conv2d_29_bias       (1,1,1,8) (57)   
                                                               O: conv2d_29_output     (1,7,7,8) (16)   
---------------------------------------------------------------------------------------------------------
16     conv2d_30        31   conv2d            17680    480    I: conv2d_29_output     (1,7,7,8) (16)   
                                                               S: conv2d_30_scratch0                    
                                                               S: conv2d_30_scratch1                    
                                                               W: conv2d_30_weights    (8,40,1,1) (58)  
                                                               W: conv2d_30_bias       (1,1,1,40) (59)  
                                                               O: conv2d_30_output     (1,7,7,40) (17)  
---------------------------------------------------------------------------------------------------------
17     conv2d_32        33   conv2d            19640    520    I: conv2d_30_output     (1,7,7,40) (17)  
                                                               S: conv2d_32_scratch0                    
                                                               S: conv2d_32_scratch1                    
                                                               W: conv2d_32_weights    (40,1,3,3) (60)  
                                                               W: conv2d_32_bias       (1,1,1,40) (61)  
                                                               O: conv2d_32_output     (1,7,7,40) (18)  
---------------------------------------------------------------------------------------------------------
18     conv2d_34        34   conv2d            15688    352    I: conv2d_32_output     (1,7,7,40) (18)  
                                                               S: conv2d_34_scratch0                    
                                                               W: conv2d_34_weights    (40,8,1,1) (62)  
                                                               W: conv2d_34_bias       (1,1,1,8) (63)   
                                                               O: conv2d_34_output     (1,7,7,8) (19)   
---------------------------------------------------------------------------------------------------------
19     eltwise_35       35   eltwise_integer   392      0      I: conv2d_29_output     (1,7,7,8) (16)   
                                                               I: conv2d_34_output     (1,7,7,8) (19)   
                                                               O: eltwise_35_output    (1,7,7,8) (20)   
---------------------------------------------------------------------------------------------------------
20     conv2d_36        37   conv2d            17680    480    I: eltwise_35_output    (1,7,7,8) (20)   
                                                               S: conv2d_36_scratch0                    
                                                               S: conv2d_36_scratch1                    
                                                               W: conv2d_36_weights    (8,40,1,1) (64)  
                                                               W: conv2d_36_bias       (1,1,1,40) (65)  
                                                               O: conv2d_36_output     (1,7,7,40) (21)  
---------------------------------------------------------------------------------------------------------
21     conv2d_38        39   conv2d            19640    520    I: conv2d_36_output     (1,7,7,40) (21)  
                                                               S: conv2d_38_scratch0                    
                                                               S: conv2d_38_scratch1                    
                                                               W: conv2d_38_weights    (40,1,3,3) (66)  
                                                               W: conv2d_38_bias       (1,1,1,40) (67)  
                                                               O: conv2d_38_output     (1,7,7,40) (22)  
---------------------------------------------------------------------------------------------------------
22     conv2d_40        40   conv2d            15688    352    I: conv2d_38_output     (1,7,7,40) (22)  
                                                               S: conv2d_40_scratch0                    
                                                               W: conv2d_40_weights    (40,8,1,1) (68)  
                                                               W: conv2d_40_bias       (1,1,1,8) (69)   
                                                               O: conv2d_40_output     (1,7,7,8) (23)   
---------------------------------------------------------------------------------------------------------
23     eltwise_41       41   eltwise_integer   392      0      I: eltwise_35_output    (1,7,7,8) (20)   
                                                               I: conv2d_40_output     (1,7,7,8) (23)   
                                                               O: eltwise_41_output    (1,7,7,8) (24)   
---------------------------------------------------------------------------------------------------------
24     conv2d_42        43   conv2d            10608    288    I: eltwise_41_output    (1,7,7,8) (24)   
                                                               S: conv2d_42_scratch0                    
                                                               S: conv2d_42_scratch1                    
                                                               W: conv2d_42_weights    (8,24,1,1) (70)  
                                                               W: conv2d_42_bias       (1,1,1,24) (71)  
                                                               O: conv2d_42_output     (1,7,7,24) (25)  
---------------------------------------------------------------------------------------------------------
25     pool_25          25   pool              18816    0      I: conv2d_23_output     (1,14,14,24) (14)
                                                               O: pool_25_output       (1,7,7,24) (26)  
---------------------------------------------------------------------------------------------------------
26     concat_46        46   concat            0        0      I: pool_25_output       (1,7,7,24) (26)  
                                                               I: conv2d_42_output     (1,7,7,24) (25)  
                                                               O: concat_46_output     (1,7,7,48) (27)  
---------------------------------------------------------------------------------------------------------
27     conv2d_47        48   conv2d            96080    2080   I: concat_46_output     (1,7,7,48) (27)  
                                                               S: conv2d_47_scratch0                    
                                                               S: conv2d_47_scratch1                    
                                                               W: conv2d_47_weights    (48,40,1,1) (72) 
                                                               W: conv2d_47_bias       (1,1,1,40) (73)  
                                                               O: conv2d_47_output     (1,7,7,40) (28)  
---------------------------------------------------------------------------------------------------------
28     conv2d_49        50   conv2d            19640    520    I: conv2d_47_output     (1,7,7,40) (28)  
                                                               S: conv2d_49_scratch0                    
                                                               S: conv2d_49_scratch1                    
                                                               W: conv2d_49_weights    (40,1,3,3) (74)  
                                                               W: conv2d_49_bias       (1,1,1,40) (75)  
                                                               O: conv2d_49_output     (1,7,7,40) (29)  
---------------------------------------------------------------------------------------------------------
29     conv2d_51        52   conv2d            64320    1408   I: conv2d_49_output     (1,7,7,40) (29)  
                                                               S: conv2d_51_scratch0                    
                                                               S: conv2d_51_scratch1                    
                                                               W: conv2d_51_weights    (40,32,1,1) (76) 
                                                               W: conv2d_51_bias       (1,1,1,32) (77)  
                                                               O: conv2d_51_output     (1,7,7,32) (30)  
---------------------------------------------------------------------------------------------------------
30     conv2d_53        53   conv2d            28242    648    I: conv2d_51_output     (1,7,7,32) (30)  
                                                               S: conv2d_53_scratch0                    
                                                               W: conv2d_53_weights    (32,18,1,1) (78) 
                                                               W: conv2d_53_bias       (1,1,1,18) (79)  
                                                               O: conv2d_53_output     (1,7,7,18) (31)  
---------------------------------------------------------------------------------------------------------



Complexity report per layer - macc=1,344,320 weights=11,304 act=30,736 ram_io=10,291
---------------------------------------------------------------------------
id   name         c_macc                    c_rom                     c_id
---------------------------------------------------------------------------
1    conv2d_1     ||||||||||||      13.1%   ||                 2.2%   [0] 
3    conv2d_3     |||||              4.7%   |                  0.9%   [1] 
5    conv2d_5     ||                 1.9%   |                  0.4%   [2] 
6    conv2d_6     |||||              5.3%   ||                 1.3%   [3] 
8    pool_8       ||||||||||||||||  16.8%   |                  0.0%   [11]
10   conv2d_10    |||                2.6%   ||                 2.1%   [4] 
12   conv2d_12    ||                 1.6%   |                  1.2%   [5] 
13   conv2d_13    ||||               3.7%   |||                3.2%   [6] 
15   conv2d_15    |||||              5.3%   ||||               4.1%   [7] 
17   conv2d_17    |||                3.1%   ||                 2.1%   [8] 
18   eltwise_18   |                  0.1%   |                  0.0%   [9] 
19   conv2d_19    ||                 1.8%   ||                 1.6%   [10]
22   concat_22    |                  0.0%   |                  0.0%   [12]
23   conv2d_23    ||||||||||||      12.9%   |||||||            8.5%   [13]
25   pool_25      ||                 1.4%   |                  0.0%   [25]
27   conv2d_27    |                  0.9%   |||                2.8%   [14]
29   conv2d_29    |                  0.7%   ||                 2.0%   [15]
30   conv2d_30    ||                 1.3%   ||||               4.2%   [16]
32   conv2d_32    ||                 1.5%   ||||               4.6%   [17]
34   conv2d_34    ||                 1.2%   |||                3.1%   [18]
35   eltwise_35   |                  0.0%   |                  0.0%   [19]
36   conv2d_36    ||                 1.3%   ||||               4.2%   [20]
38   conv2d_38    ||                 1.5%   ||||               4.6%   [21]
40   conv2d_40    ||                 1.2%   |||                3.1%   [22]
41   eltwise_41   |                  0.0%   |                  0.0%   [23]
42   conv2d_42    |                  0.8%   |||                2.5%   [24]
46   concat_46    |                  0.0%   |                  0.0%   [26]
47   conv2d_47    |||||||            7.1%   ||||||||||||||||  18.4%   [27]
49   conv2d_49    ||                 1.5%   ||||               4.6%   [28]
51   conv2d_51    |||||              4.8%   |||||||||||       12.5%   [29]
53   conv2d_53    ||                 2.1%   |||||              5.7%   [30]

Generated files (5)
----------------------------------------------------------------------
C:\Users\NH55\.stm32cubemx\yoloface_output\yoloface_config.h
C:\Users\NH55\.stm32cubemx\yoloface_output\yoloface.h
C:\Users\NH55\.stm32cubemx\yoloface_output\yoloface.c
C:\Users\NH55\.stm32cubemx\yoloface_output\yoloface_data.h
C:\Users\NH55\.stm32cubemx\yoloface_output\yoloface_data.c
